…
2022-06-06 15:45:16,150 __main__ line:155 INFO: enc.layers.0.self_attn.w_value.weight 65536
2022-06-06 15:45:16,150 __main__ line:155 INFO: enc.norm_out.bias 256
2022-06-06 15:45:16,150 __main__ line:155 INFO: enc.norm_out.weight 256
2022-06-06 15:45:16,150 __main__ line:156 INFO: Total 4.18 M parameters
2022-06-06 15:45:16,150 __main__ line:157 INFO: torch version: 1.11.0+cu113
2022-06-06 15:45:16,150 __main__ line:158 INFO: Speech2Text(
  (enc): ConformerEncoder(
    (conv): ConvEncoder(
      (layers): ModuleList(
        (0): Conv2dBlock(
          (dropout): Dropout(p=0.0, inplace=False)
          (conv1): Conv2d(1, 32, kernel_size=(3, 3), stride=(1, 1), padding=(1, 1))
          (conv2): Conv2d(32, 32, kernel_size=(3, 3), stride=(1, 1), padding=(1, 1))
        )
        (1): Conv2dBlock(
          (dropout): Dropout(p=0.0, inplace=False)
          (conv1): Conv2d(32, 32, kernel_size=(3, 3), stride=(1, 1), padding=(1, 1))
          (conv2): Conv2d(32, 32, kernel_size=(3, 3), stride=(1, 1), padding=(1, 1))
          (pool): MaxPool2d(kernel_size=(2, 2), stride=(2, 2), padding=(0, 0), dilation=1, ceil_mode=True)
        )
      )
      (bridge): Linear(in_features=1280, out_features=256, bias=True)
    )
    (pos_emb): XLPositionalEmbedding(
      (dropout): Dropout(p=0.1, inplace=False)
    )
    (layers): ModuleList(
      (0): ConformerEncoderBlock(
        (norm1): LayerNorm((256,), eps=1e-12, elementwise_affine=True)
        (feed_forward_macaron): PositionwiseFeedForward(
          (w_1): Linear(in_features=256, out_features=1024, bias=True)
          (w_2): Linear(in_features=1024, out_features=256, bias=True)
          (dropout): Dropout(p=0.1, inplace=False)
          (activation): Swish()
        )
        (norm2): LayerNorm((256,), eps=1e-12, elementwise_affine=True)
        (self_attn): RelativeMultiheadAttentionMechanism(
          (dropout_attn): Dropout(p=0.0, inplace=False)
          (w_key): Linear(in_features=256, out_features=256, bias=False)
          (w_value): Linear(in_features=256, out_features=256, bias=False)
          (w_query): Linear(in_features=256, out_features=256, bias=False)
          (w_out): Linear(in_features=256, out_features=256, bias=False)
        )
        (norm3): LayerNorm((256,), eps=1e-12, elementwise_affine=True)
        (conv): ConformerConvBlock(
          (pointwise_conv1): Conv1d(256, 512, kernel_size=(1,), stride=(1,))
          (depthwise_conv): Conv1d(256, 256, kernel_size=(15,), stride=(1,), padding=(7,), groups=256)
          (norm): LayerNorm((256,), eps=1e-12, elementwise_affine=True)
          (activation): Swish()
          (pointwise_conv2): Conv1d(256, 256, kernel_size=(1,), stride=(1,))
        )
        (norm4): LayerNorm((256,), eps=1e-12, elementwise_affine=True)
        (feed_forward): PositionwiseFeedForward(
          (w_1): Linear(in_features=256, out_features=1024, bias=True)
          (w_2): Linear(in_features=1024, out_features=256, bias=True)
          (dropout): Dropout(p=0.1, inplace=False)
          (activation): Swish()
        )
        (norm5): LayerNorm((256,), eps=1e-12, elementwise_affine=True)
        (dropout): Dropout(p=0.1, inplace=False)
      )
    )
    (norm_out): LayerNorm((256,), eps=1e-12, elementwise_affine=True)
  )
  (dec_fwd): RNNDecoder(
    (ctc): CTC(
      (output): Sequential(
        (fc0): Linear(in_features=256, out_features=512, bias=True)
        (dropout0): Dropout(p=0.4, inplace=False)
        (fc1): Linear(in_features=512, out_features=4236, bias=True)
      )
      (ctc_loss): CTCLoss()
    )
  )
)
2022-06-06 15:45:16,151 neural_sp.trainers.optimizer line:26 INFO: ===== Freezed parameters =====
2022-06-06 15:45:16,333 neural_sp.models.base line:107 INFO: torch.backends.cudnn.benchmark: False
2022-06-06 15:45:16,333 neural_sp.models.base line:108 INFO: torch.backends.cudnn.enabled: True
2022-06-06 15:45:19,445 __main__ line:275 INFO: PID: 15023
…
